gnn-prefetch/gnn_prefetch_linkpred.pt (torch, 865819 bytes, 9 tensors)

convs.0.lin_l.weight f4 [128, 648]
-0.08155034 0.0054489733 -0.031870387 -0.03794836 -0.030639537 -0.024127044 0.02622395 -0.0469313
-0.01006768 -9.076532e-05 -6.0484752e-05 -0.059732806 -1.9146915e-05 0.023442315 0.002085465 4.2472657e-06
-2.2184053e-05 0.043609157 1.9413636e-05 1.5049425e-05 0.02955297 1.8771168e-05 -5.4801694e-05 0.052646466
0.0303939 -3.2362273e-05 -0.00016281495 0.02957326 -0.00016989344 -8.7685585e-05 0.043001536 0.012697559
-0.00010540383 1.4694502e-05 0.015362267 1.9624931e-06 -5.8017566e-05 -8.130455e-05 -7.724924e-06 0.020428471
0.012046733 -1.6053711e-05 -4.756119e-06 0.00088161335 -6.54484e-05 0.0001709564 0.021225145 -9.959572e-05
0.00014570769 0.03918092 1.8332026e-05 4.2062857e-05 0.025427626 0.07024643 -0.0001322995 -1.25454e-05
0.040393945 -3.5556543e-05 0.044329047 -0.00013414923 -6.153936e-05 0.013577812 8.509094e-05 -2.0288768e-05
0.02271352 -2.5740002e-05 -2.8061695e-05 0.025935754 -5.7422163e-05 -3.2148e-06 -0.00031257927 -4.464804e-05
7.018045e-05 0.06704979 4.4748787e-05 -5.7030447e-06 -2.1778655e-05 -2.6403994e-05 -2.3939743e-05 0.022725796
3.8062633e-05 7.660907e-05 0.07183498 0.063759886 0.030182851 5.7750367e-07 -0.00010312765 1.262766e-05
1.8334837e-05 0.024036806 -1.4364097e-05 2.0185265e-05 0.05905116 0.045708943 -7.6021686e-05 8.719366e-05
-3.5099147e-05 1.9835905e-05 0.025571212 1.5575899e-05 -3.4814268e-05 0.004087361 -9.113228e-05 3.7260084e-05
0.06564153 0.012414236 -5.7177844e-05 -4.231852e-05 8.360081e-05 6.0397982e-05 0.0031825108 -3.230614e-05
2.3756893e-05 0.012102062 -0.00016492742 6.285394e-05 0.06137813 0.004462333 -0.00015198896 -7.939646e-05
0.00015466791 -9.1649665e-05 0.016334204 1.613213e-05 -1.6372665e-05 0.010353097 -2.0082442e-05 3.1790467e-05
0.063209124 0.010364362 -1.2736752e-05 -2.2320242e-05 -3.325773e-06 -7.502942e-05 0.012541808 -1.3036939e-05
1.6070373e-05 0.020517193 -2.0138159e-05 0.00010936518 0.022436332 0.03460779 -7.6389195e-05 6.9280744e-05
-0.000110959474 0.00010222582 0.01231018 7.185075e-05 -3.0595875e-05 0.0040000626 5.1856303e-05 -4.2029424e-06
0.04377374 0.02494795 3.4226243e-05 1.5859405e-06 7.549093e-05 -2.971731e-05 0.00034176875 0.02141319
2.6382055e-05 0.0001513283 0.055194844 -0.00013511651 0.00011560633 9.516751e-05 -1.8040988e-05 0.02184696
0.00015467699 -6.989903e-05 7.6172524e-05 4.3448956e-05 -0.00013568411 -0.007464989 0.025656601 -6.235331e-05
6.0952945e-05 0.05316632 0.036301572 4.4848184e-05 -0.00010800472 0.0046846564 -3.2805285e-05 3.4055665e-06
0.003904267 6.669691e-05 -3.154231e-05 -0.00010126743 0.0001055404 0.07854636 0.026118336 -1.322692e-05
-6.4481173e-06 0.017891377 -1.1889006e-06 2.9404833e-05 0.021710891 7.749209e-05 0.00011411447 0.033546764
-4.0069976e-05 -1.8021834e-05 -0.010921029 -0.024952656 0.076537006 -1.3418075e-06 -3.9974104e-05 0.042191043
0.014411442 2.4240671e-05 -2.2944718e-05 0.02303031 0.0057744747 3.0073945e-05 -3.6328896e-05 0.030534519
6.443631e-05 3.0570045e-05 0.015425814 -6.251486e-05 0.00010202373 0.0071896887 4.2693042e-05 -0.00013526133
-3.1263837e-05 2.4013265e-05 -0.00012809157 0.05731349 0.020580912 5.9210824e-06 1.297356e-05 0.03759618
-5.7063357e-05 9.97851e-06 -1.5580248e-05 1.6350732e-06 0.0200345 -6.444032e-05 -3.6453202e-05 0.046669453
-0.0055897804 -0.00013358955 -1.0051401e-05 0.014356803 0.00015493558 -6.497925e-06 0.059275877 -2.7424703e-05
1.686658e-05 0.029627498 7.643731e-05 8.2624916e-05 0.01149192 -1.9602003e-05 7.6266486e-05 0.030970456
00000000: dd03 a7bd 4d8d b23b 868a 02bd bd6f 1bbd
00000010: c4ff fabc 14a6 c5bc 9cd3 d63c 093b 40bd
00000020: e9f2 24bc 4359 beb8 02b1 7db8 63aa 74bd
00000030: b09d a0b7 190a c03c 4cac 083b bc83 8e36
00000040: e417 bab7 849f 323d 77da a237 ca7c 7c37
00000050: 1219 f23c c776 9d37 dfda 65b8 d2a3 573d
00000060: a1fc f83c babc 07b8 4eb9 2ab9 9f43 f23c
00000070: 6c25 32b9 d7e3 b7b8 6122 303d 6c09 503c
00000080: 400c ddb8 6888 7637 05b2 7b3c 60b3 0336
00000090: e357 73b8 0c82 aab8 4c9a 01b7 9c59 a73c
000000a0: a95f 453c 15ab 86b7 c096 9fb6 121c 673a
000000b0: 5841 89b8 c242 3339 5be0 ad3c 0cde d0b8
000000c0: 1cc9 1839 2c7c 203d bac7 9937 a66c 3038
000000d0: 994d d03c 5cdd 8f3d e0b9 0ab9 157a 52b7
000000e0: 1f74 253d 8c22 15b8 6092 353d 69aa 0cb9
000000f0: b10e 81b8 7975 5e3c da72 b238 cc31 aab7
00000100: b411 ba3c 3cec d7b7 0866 ebb7 3877 d43c
00000110: 94d8 70b8 d8bd 57b6 aee1 a3b9 7844 3bb8
00000120: d82d 9338 6651 893d a5b0 3b38 c85c bfb6
00000130: 4eb1 b6b7 257e ddb7 35d2 c8b7 732b ba3c
00000140: 71a5 1f38 2ea9 a038 381e 933d 8b94 823d
00000150: 0742 f73c c005 1b35 3c46 d8b8 63db 5337
00000160: c3cd 9937 d6e8 c43c 54fd 70b7 8753 a937
00000170: a1df 713d 4d39 3b3d d56d 9fb8 bddb b638
00000180: 6c37 13b8 4865 a637 b87a d13c fda8 8237
00000190: 8905 12b8 45ef 853b 451e bfb8 b647 1c38
000001a0: 116f 863d 1465 4b3c 3ed2 6fb8 2a7f 31b8
000001b0: d852 af38 d753 7d38 ac91 503b 7480 07b8
000001c0: 8a49 c737 ba47 463c 5ef0 2cb9 74d0 8338
000001d0: a267 7b3d c338 923b 3a5f 1fb9 a681 a6b8
000001e0: 5a2e 2239 0a34 c0b8 4fcf 853c 7c53 8737
000001f0: 0858 89b7 09a0 293c b776 a8b7 c156 0538
00000200: c973 813d 49cf 293c efaf 55b7 5b3c bbb7
00000210: 5830 5fb6 1d59 9db8 287c 4d3c 3ab9 5ab7
00000220: ddce 8637 ac13 a83c 5eee a8b7 fc5a e538
00000230: 66cc b73c e6c0 0d3d 2333 a0b8 d14a 9138
00000240: eab2 e8b8 1262 d638 a3b0 493c 94ae 9638
00000250: 1254 00b8 f512 833b 4880 5938 0007 8db6
00000260: 184c 333d a55f cc3c 268e 0f38 80dc d435
00000270: e250 9e38 7049 f9b7 6d2f b339 b76a af3c
00000280: 084f dd37 e2ad 1e39 fd13 623d 10ae 0db9
00000290: ad71 f238 ab94 c738 ba56 97b7 65f8 b23c
000002a0: ca30 2239 c296 92b8 d0be 9f38 f63c 3638
000002b0: 6d46 0eb9 de9c f4bb cb2d d23c aec3 82b8
000002c0: baa7 7f38 edc4 593d f5b0 143d 5f1b 3c38
000002d0: 9880 e2b8 bf81 993b 6898 09b8 308b 6436
000002e0: bbde 7f3b a2df 8b38 4c4c 04b8 8a5f d4b8
000002f0: 9255 dd38 eadc a03d 1ff6 d53c 30e9 5db7
00000300: e85c d8b6 f090 923c 5092 9fb5 66aa f637
00000310: 0adb b13c 4083 a238 bd50 ef38 5568 093d
00000320: cf10 28b8 982d 97b7 1eee 32bc 8369 ccbc
00000330: 6fbf 9c3d 2818 b4b5 dea9 27b8 84d0 2c3d
00000340: f81d 6c3c 7258 cb37 6879 c0b7 10aa bc3c
00000350: ce37 bd3b 4e47 fc37 db5f 18b8 8723 fa3c
00000360: fb21 8738 5638 0038 8ebc 7c3c 691a 83b8
00000370: 93f5 d538 7b97 eb3b 4e11 3338 f0d4 0db9
00000380: 4a21 03b8 1870 c937 5250 06b9 8dc1 6a3d
00000390: 4d99 a83c b6ad c636 04a9 5937 74fe 193d
000003a0: 5057 6fb8 6069 2737 54b2 82b7 b074 db35
000003b0: 641f a43c 2224 87b8 54e5 18b8 7828 3f3d
000003c0: 7a2a b7bb 2c14 0cb9 70a2 28b7 cc38 6b3c
000003d0: 3476 2239 c008 dab6 43cb 723d 1a0e e6b7
000003e0: b47c 8d37 5eb5 f23c f84c a038 ea46 ad38
000003f0: 9b48 3c3c fb6e a4b7 42f1 9f38 c1b5 fd3c

convs.0.lin_l.bias f4 [128]
-0.010285812 -0.018984709 -0.023536216 0.029202102 -0.018822504 -0.012393728 0.05823724 0.00394103
-0.052279428 -0.005642802 0.03720069 -0.021449411 0.042822763 -0.009852227 0.025422571 0.02959408
-0.026944041 -0.008359358 0.044924475 -0.0067814304 0.00033159764 0.022777619 -0.032726385 0.0011286172
-0.03953564 0.020389104 0.009007908 0.052050408 0.0076267393 -0.026196817 0.0038072201 0.0061927293
0.01510935 0.028035637 -0.01604297 0.002808931 -0.036558617 0.0006787995 0.0051094587 0.008727179
-0.007489254 0.0010404333 -0.008012515 -0.002950122 0.02522441 -0.0034607488 0.04220864 -0.03051439
-0.033246554 0.015894603 0.046105027 -0.012556057 -0.01526394 -0.0026997887 0.035250794 0.00013664611
-0.042886343 0.029528242 0.014675592 -0.036656838 0.039993778 -0.026935017 0.0012927528 0.04716422
-0.012585111 -0.017826336 -0.034989744 -0.056652687 -0.0055653513 -0.052389205 -0.06259721 0.019414876
-0.01531332 0.04068496 -0.005158512 0.03344176 -0.01166341 0.0137651125 0.03117483 0.017103149
0.039858535 -0.010561606 0.02295867 -0.009120951 0.070335396 -0.030563798 0.037743602 0.02819196
-0.008638531 0.004062447 0.04834097 -0.04569531 0.019931564 -0.03801052 0.01261807 0.025265882
0.032644697 -0.014738191 0.013651197 0.06321641 0.025461169 -0.028705046 -0.0029675872 -0.017864369
-0.032173473 -0.013529442 0.027244896 0.007333136 0.013309514 -0.014191399 -0.026166024 -0.011257409
-0.06050809 0.014722917 0.006322417 -0.060699817 -0.014162758 0.027961547 0.000829265 0.02905954
-0.004181562 0.015116701 -0.058860436 -0.03413503 0.01788711 0.010199883 0.046080526 0.0050052353
00000000: d385 28bc d285 9bbc 06cf c0bc 3f39 ef3c
00000010: a731 9abc 100f 4bbc 2c8a 6e3d c123 813b
00000020: f422 56bd 41e7 b8bb c05f 183d adb6 afbc
00000030: ec66 2f3d 3c6b 21bc ff42 d03c 496f f23c
00000040: c0b9 dcbc b0f5 08bc ba02 383d c336 debb
00000050: 48da ad39 2198 ba3c 1a0c 06bd 1cee 933a
00000060: 20f0 21bd 0d07 a73c e895 133c cf32 553d
00000070: bae9 f93b b59a d6bc 8e82 793b 61ec ca3b
00000080: 358d 773c feaa e53c 8c6c 83bc 0b16 383b
00000090: 7dbe 15bd 77f1 313a 3f6d a73b 71fc 0e3c
000000a0: 6b68 f5bb 265f 883a ec46 03bc d656 41bb
000000b0: 6ca3 ce3c bbcd 62bb f8e2 2c3d 50f9 f9bc
000000c0: 8a2d 08bd 6635 823c a0d8 3c3d ecb7 4dbc
000000d0: 9b15 7abc f0ee 30bb 2363 103d a948 0f39
000000e0: 97a9 2fbd 36e5 f13c e571 703c 7b25 16bd
000000f0: 84d0 233d d3a6 dcbc 9671 a93a 452f 413d
00000100: c831 4ebc 8908 92bc 6851 0fbd a60c 68bd
00000110: 8d5d b6bb 1096 56bd f732 80bd f20b 9f3c
00000120: b8e4 7abc 46a5 263d bc08 a9bb 3afa 083d
00000130: e317 3fbc 1187 613c 5b62 ff3c e71b 8c3c
00000140: b442 233d 960a 2dbc d213 bc3c 0b70 15bc
00000150: 010c 903d ee60 fabc 0999 1a3d d3f2 e63c
00000160: a088 0dbc 471e 853b 2e01 463d 012b 3bbd
00000170: 8547 a33c ebb0 1bbd 05bc 4e3c 65fa ce3c
00000180: 72b6 053d 7478 71bc 45a9 5f3c 9b77 813d
00000190: f193 d03c d826 ebbc da7b 42bb 4c58 92bc
000001a0: 55c8 03bd 98aa 5dbc b030 df3c ce4a f03b
000001b0: 2610 5a3c 0b83 68bc 215a d6bc ff70 38bc
000001c0: 55d7 77bd 6438 713c 472c cf3b 5fa0 78bd
000001d0: ea0a 68bc 9d0f e53c 0863 593a 460e ee3c
000001e0: 7c05 89bb 0aac 773c a417 71bd 2cd1 0bbd
000001f0: fd87 923c 691d 273c efbe 3c3d f502 a43b

convs.0.lin_r.weight f4 [128, 648]
-0.046139974 -0.017784087 0.00086612813 -0.036686286 -0.028890781 -0.035244912 -0.026065815 0.031081041
-0.036508046 -0.005316864 -0.041889243 0.031721096 3.671697e-05 -5.524748e-05 0.006529977 0.00016274714
-0.00065116846 0.040061846 0.039155934 0.00869835 -7.65677e-06 0.014860811 0.012651732 -0.0020833071
0.00010927142 0.0019674134 0.010935876 0.016771073 0.030203875 0.020425314 -0.005986701 -0.020291321
0.0050118905 0.0055899993 0.023781858 0.0050042463 0.010302111 0.014257525 0.0048759487 0.006017319
0.03165459 0.014490706 0.019218631 0.016112793 0.00021881513 0.00023111264 0.029763946 0.011930555
0.0055222963 0.03834427 0.009269632 0.040010124 0.000108664695 0.028428314 0.040409066 0.004911126
-0.00045844473 0.08512319 0.00010897471 0.021947691 0.025330488 0.077715136 0.008923123 -0.0024820166
0.021878704 0.0070691877 0.018348759 0.02175408 0.014657828 -0.00076572696 0.062557966 3.2545642e-05
-0.00042092035 -0.06995757 0.034756724 0.04863964 0.024806729 -0.0001777561 -0.0001371329 0.025976866
0.0036923555 0.0032416002 -1.6214379e-05 0.031788327 0.05531544 0.014155137 0.00033403793 -0.00030053905
0.005004789 0.022550123 0.0031787537 0.021818439 0.040001094 0.015317764 0.027976744 0.010635896
0.002176009 0.0034039149 0.013970049 0.008692488 0.009741653 0.007526372 0.0036696182 1.04289575e-05
0.028129471 0.004515588 0.000804903 0.0024613463 0.0053257532 0.002417526 0.002435855 0.009468132
-0.024323614 0.034918297 0.005771961 0.0035489802 0.02506536 0.023993723 -0.0008408509 0.00034970883
0.0006512768 -0.0001906223 0.021057073 0.005870283 0.0074739475 0.025635058 -0.0005797657 0.008540068
0.015200576 0.018831182 0.00065145816 0.016733548 0.0014004348 0.012807331 0.0025537843 0.009806387
0.01317492 0.009485788 0.0104340585 0.022201035 0.0134805925 0.025174152 0.026615182 0.018893873
0.014335193 0.00077242276 0.024347758 0.00068968814 0.0041077603 0.014998342 -0.00056907616 0.0018847885
0.02215116 0.010692804 0.014753295 0.005336371 0.010144019 0.011313874 0.02445723 0.0002457337
0.0058549666 0.0034160465 -7.6904864e-05 0.027668532 0.0091991 -2.166005e-05 0.00013829907 -2.5584175e-05
0.008370581 0.015125156 0.0020000776 1.7471713e-05 -2.1904973e-05 0.011500757 0.0026468358 0.013471081
0.010036264 0.039313495 0.02293708 0.002847364 0.018340928 0.020886049 0.0035929508 0.00011217155
0.0018534424 -0.00027826382 0.0034136006 0.00190031 0.010001472 0.088356644 0.021158699 0.01723273
0.006238928 0.0347394 0.009925865 0.0027974558 0.007012616 0.0010820552 0.019020347 0.046952892
0.00011965027 0.013560989 0.0056644767 -0.010929158 -0.026920993 0.12882233 0.033100147 5.8022095e-05
0.03419493 -0.0022730394 0.001446645 0.048890807 0.001113518 0.0015339563 -0.0001898405 0.0061670155
0.012140109 0.011714218 0.028639335 4.056067e-05 3.5334342e-05 0.0066284216 0.017451663 -0.02462889
0.014879514 -0.00019401308 -8.8188484e-05 0.0015951162 0.011248264 0.0014690796 0.007412911 0.037098095
0.010643825 0.024868913 0.0021109246 0.00027743643 0.035548445 0.011300111 0.0028762184 0.070790045
0.054618675 0.020569295 0.002397596 0.03345227 0.019577745 0.0014100663 0.00972078 0.0021820574
0.0037330305 0.02340757 0.011028751 0.0036199333 0.04336303 0.014074533 0.00060079584 0.006673242
00000000: 45fd 3cbd efaf 91bc e00c 633a 5c44 16bd
00000010: 5cac ecbc f85c 10bd fa87 d5bc ab9d fe3c
00000020: 7689 15bd 1639 aebb 0e94 2bbd fbed 013d
00000030: 8c00 1a38 88b9 67b8 6bf9 d53b 1aa7 2a39
00000040: 2db3 2aba e417 243d f961 203d 8683 0e3c
00000050: 9475 00b7 c27a 733c 3649 4f3c 1888 08bb
00000060: a628 e538 b8ef 003b 632c 333c 7d63 893c
00000070: 1e6e f73c fd52 a73c 172c c4bb fc39 a6bc
00000080: c93a a43b 502c b73b 2cd2 c23c a9fa a33b
00000090: 2fca 283c 6598 693c 6cc6 9f3b ee2c c53b
000000a0: 3ea8 013d 6d6a 6d3c 6470 9d3c fafe 833c
000000b0: bd71 6539 d456 7239 85d3 f33c 6078 433c
000000c0: 61f4 b43b e20e 1d3d a8df 173c a8e1 233d
000000d0: eae2 e338 7fe2 e83c fa83 253d 83ed a03b
000000e0: 695b f0b9 1155 ae3d 5a89 e438 a5cb b33c
000000f0: e281 cf3c 1d29 9f3d 4a32 123c 54a9 22bb
00000100: f83a b33c a5a4 e73b 2350 963c 9d35 b23c
00000110: 6327 703c 11bb 48ba 641e 803d 9e81 0838
00000120: f9ae dcb9 ea45 8fbd 115d 0e3d 5c3a 473d
00000130: 7b37 cb3c 0a64 3ab9 55cb 0fb9 70cd d43c
00000140: 72fb 713b 0771 543b 1d04 88b7 7a34 023d
00000150: 7192 623d f3ea 673c d021 af39 ab91 9db9
00000160: 37ff a33b 09bb b83c a352 503b 95bc b23c
00000170: 30d8 233d 5cf7 7a3c 7c2f e53c 2e42 2e3c
00000180: 5f9b 0e3b 3714 5f3b a2e2 643c f06a 0e3c
00000190: 749b 1f3c c99f f63b fa7d 703b 08f8 2e37
000001a0: c76f e63c 7ff7 933b 2000 533a 8a4e 213b
000001b0: a883 ae3b 5b6f 1e3b dea2 1f3b 3920 1b3c
000001c0: 5142 c7bc 7d06 0f3d b822 bd3b 0296 683b
000001d0: df55 cd3c 7c8e c43c 8c6c 5cba 2059 b739
000001e0: 72ba 2a3a c9e1 47b9 e27f ac3c 815b c03b
000001f0: 04e8 f43b 9d00 d23c 6bfb 17ba a4eb 0b3c
00000200: d60b 793c da43 9a3c 9ec6 2a3a cb14 893c
00000210: cb8e b73a d7d5 513c 645d 273b f8aa 203c
00000220: 9fdb 573c 476a 1b3c 9df3 2a3c f2de b53c
00000230: b4dd 5c3c 063a ce3c 1508 da3c 53c7 9a3c
00000240: 28de 6a3c 6a7c 4a3a f374 c73c 30cc 343a
00000250: 649a 863b 9bbb 753c 0e2e 15ba 020b f73a
00000260: 5976 b53c df30 2f3c ceb7 713c b9dc ae3b
00000270: 1933 263c d45d 393c 875a c83c d2d5 8039
00000280: 05db bf3b c0df 5f3b fc47 a1b8 1ea9 e23c
00000290: d2b7 163c 9ab2 b5b7 6004 1139 999d d6b7
000002a0: c324 093c 81cf 773c bc13 033b 3890 9237
000002b0: 92c0 b7b7 ac6d 3c3c 8976 2d3b cfb5 5c3c
000002c0: 246f 243c 3007 213d 8be6 bb3c d79a 3a3b
000002d0: b73f 963c 3819 ab3c b677 6b3b a43d eb38
000002e0: 35ef f23a f0e3 91b9 b7b6 5f3b d313 f93a
000002f0: 37dd 233c 54f4 b43d 0255 ad3c a72b 8d3c
00000300: ec6f cc3b e74a 0e3d 18a0 223c 8555 373b
00000310: 16ca e53b bfd3 8d3a 8fd0 9b3c ad51 403d
00000320: c0ec fa38 e92e 5e3c 139d b93b 3610 33bc
00000330: 6a89 dcbc 00ea 033e 0594 073d c05c 7338
00000340: fc0f 0c3d 46f7 14bb 5a9d bd3a ba41 483d
00000350: 77f3 913a 080f c93a ec0f 47b9 ad14 ca3b
00000360: 4fe7 463c feec 3f3c 0a9d ea3c b01f 2a38
00000370: f633 1438 3b33 d93b caf6 8e3c 87c2 c9bc
00000380: 35c9 733c fd6f 4bb9 d5f1 b8b8 3813 d13a
00000390: a44a 383c 228e c03a 01e8 f23b 2cf4 173d
000003a0: 7063 2e3c e4b9 cb3c 7057 0a3b e374 9139
000003b0: 3f9b 113d 1a24 393c f07e 3c3b 5ffa 903d
000003c0: d5b7 5f3d f080 a83c fc20 1d3b 3f05 093d
000003d0: 8261 a03c f9d1 b83a e843 1f3c d900 0f3b
000003e0: dca5 743b 3bc1 bf3c efb1 343c 673c 6d3b
000003f0: 6f9d 313d df98 663c ba7e 1d3a 36ab da3b

convs.1.lin_l.weight f4 [128, 128]
0.0028292919 -0.07669555 -0.06749529 -0.0058977986 -0.011814792 -0.0056015984 0.0699491 -0.06014766
-0.016020227 0.04152299 0.00505756 0.011742457 0.09371798 0.030181587 -0.032932047 0.049767807
0.0002510334 -0.0634069 0.017630901 0.0012088843 0.008662692 0.030125584 0.039961692 0.020929292
-0.046779767 -0.060174912 0.066778414 0.004933192 -0.08518038 0.018936701 0.010529978 -0.053849924
0.035636317 -0.057398666 0.068813436 -0.04229168 -0.012072114 -0.055733144 -0.015333232 0.01897111
-0.09679285 0.0009974239 0.008991112 0.012288563 0.021027789 -0.051379092 -0.12438038 0.01865178
0.0002952863 0.020097336 0.03125087 0.016862705 0.027633302 0.019285502 -0.018383458 0.0073158015
0.0033482702 0.04386572 -0.0109440815 0.036821686 0.08775064 0.06528177 0.049043797 -0.09100116
0.028100578 -0.02894622 0.00812969 -0.009011934 0.08773133 -0.012769905 -0.044318248 -0.020533813
-0.015838593 -0.027348349 0.027344799 -0.0041011446 0.0065749353 -0.083960295 0.018283289 -0.037826598
0.021684209 -0.07653372 0.057176568 -0.058896992 -0.03374256 0.02810695 -0.065050736 -0.056523807
0.05362747 -0.02021135 -0.0526589 0.049424715 -0.0119180465 -0.020775763 -0.06503121 0.0034433685
0.07250796 0.030273516 0.06502215 -0.054174542 0.035410922 0.022120455 0.07587448 -0.05102199
0.0071251937 -0.063157186 0.109370366 -0.1089655 -0.0011236718 -0.034924474 0.059497233 -0.029757934
-0.00045842826 -0.006025724 -0.0043108007 -0.0029613513 0.055613376 0.07755515 0.020018384 0.043296225
-0.0040501435 -0.11356617 1.3443851e-05 -0.012436178 0.044353466 -0.0025176439 0.029099843 -0.05906963
0.06404491 0.08975979 0.077878565 0.08197967 0.04925777 0.007885295 0.13653697 -0.04661724
-0.008980458 -0.011458292 0.0058779987 -0.06493578 0.032443423 -0.021916132 -0.044974726 0.10138949
-0.07205104 0.05326109 -0.11606279 -0.10384687 0.12776276 -0.102933526 0.011437246 0.104980096
0.001340726 -0.016634164 0.08898138 -0.051954698 -0.049094465 -0.00987834 -0.0021387662 0.101471
0.042289875 0.006850401 -0.048681427 -0.016228147 0.056170244 -0.076221354 0.110132806 -0.022941587
0.0030672203 -0.061812464 0.07779936 0.035047352 0.048394684 0.09418688 -0.075152904 0.06947115
-0.057554256 0.09317511 0.044026107 0.036986075 0.07482253 0.044706587 -0.05119314 -0.006348978
0.022764778 0.12169743 0.04019955 0.03523401 0.055165615 0.011962457 -0.07896116 -0.07130534
-0.027763747 0.024060111 0.021777809 -0.030615091 0.047486342 -0.049117733 -0.0070555196 -0.012079739
0.046226762 0.09222179 0.066452146 0.10914619 -0.07975944 -0.01453449 0.11829165 0.032401677
-0.017042404 0.023615161 0.019365303 -0.037780985 0.024367832 0.04937387 0.014909724 0.052498747
0.007140188 0.09956809 0.048588347 -0.010873777 -0.020468941 0.0045553753 0.111291185 -0.034787614
0.005227808 0.024641305 0.014897662 -0.10639126 -0.0041263103 -0.028020421 -0.033922546 0.09900501
-0.016760936 -0.06498418 -0.08414735 -0.026709868 -0.032404166 -0.033609413 0.003713823 -0.008975231
-0.00031584682 -0.012736984 -0.055858955 -0.007088902 0.022076553 -0.012062637 -0.061917122 0.07156485
-0.021416465 -0.12422163 -0.0068714838 0.033694696 0.10913535 0.08476018 0.08658184 -0.079405114
00000000: a46b 393b 8e12 9dbd f83a 8abd 5242 c1bb
00000010: d492 41bc 9d8d b7bb 7941 8f3d 655d 76bd
00000020: da3c 83bc 0314 2a3d e3b9 a53b 6f63 403c
00000030: 36ef bf3d 603f f73c c1e3 06bd 54d9 4b3d
00000040: 229d 8339 7adb 81bd ae6e 903c 6d73 9e3a
00000050: f7ed 0d3c eec9 f63c dfae 233d e873 ab3c
00000060: 249c 3fbd f879 76bd 1fc3 883d 9da6 a13b
00000070: 0d73 aebd 2421 9b3c ee85 2c3c bd91 5cbd
00000080: 63f7 113d dd1a 6bbd 0fee 8c3d 0a3a 2dbd
00000090: 1eca 45bc 7048 64bd 3c38 7bbc 4d69 9b3c
000000a0: 543b c6bd febb 823a 754f 133c f855 493c
000000b0: 7842 ac3c e272 52bd 24bb febd 9ecb 983c
000000c0: a8d0 9a39 2ba3 a43c ea00 003d a823 8a3c
000000d0: 3c5f e23c a1fc 9d3c e898 96bc 64b9 ef3b
000000e0: a76e 5b3b 8bac 333d ce4e 33bc 56d2 163d
000000f0: 9cb6 b33d 73b2 853d 26e2 483d d15e babd
00000100: 2f33 e63c a020 edbc 6432 053c caa6 13bc
00000110: 7cac b33d dd38 51bc 0d87 35bd 8736 a8bc
00000120: f0bf 81bc a509 e0bc 3302 e03c e562 86bb
00000130: 8e72 d73b 60f3 abbd d6c6 953c 10f0 1abd
00000140: 15a3 b13c b6bd 9cbd fa31 6a3d f93d 71bd
00000150: a335 0abd 8c40 e63c 5239 85bd 8285 67bd
00000160: 7aa8 5b3d 4692 a5bc dcb0 57bd 9271 4a3d
00000170: e943 43bc ef31 aabc 152f 85bd 23aa 613b
00000180: 0e7f 943d 2a00 f83c 552a 853d 20e6 5dbd
00000190: 0b0b 113d f535 b53c 1464 9b3d 6ffc 50bd
000001a0: 757a e93b 8e58 81bd 92fd df3d 4e29 dfbd
000001b0: 2b48 93ba f70c 0fbd 5fb3 733d e9c6 f3bc
000001c0: 3359 f0b9 7073 c5bb 9e41 8dbb 3b13 42bb
000001d0: daca 633d 3cd5 9e3d 98fd a33c 6257 313d
000001e0: 11b7 84bb 6195 e8bd e68c 6137 1cc1 4bbc
000001f0: fbab 353d 0eff 24bb cb62 ee3c fff2 71bd
00000200: fa29 833d fbd3 b73d cc7e 9f3d f5e4 a73d
00000210: 84c2 493d 5331 013c 59d0 0b3e b8f1 3ebd
00000220: c522 13bc 8fbb 3bbc 3a9c c03b 0dfd 84bd
00000230: 65e3 043d 7689 b3bc 6b37 38bd 4ba5 cf3d
00000240: 7f8f 93bd 4d28 5a3d 54b2 edbd abad d4bd
00000250: 3ed4 023e d0ce d2bd 4963 3b3c ceff d63d
00000260: 4dbb af3a 5f44 88bc df3b b63d 73ce 54bd
00000270: 4717 49bd c3d8 21bc 8b2a 0cbb 07d0 cf3d
00000280: 2638 2d3d 5479 e03b 2d66 47bd e4f0 84bc
00000290: c512 663d f119 9cbd 4f8d e13d ffef bbbc
000002a0: 6b03 493b 112f 7dbd 4555 9f3d d08d 0f3d
000002b0: 8139 463d 0de5 c03d c4e9 99bd e446 8e3d
000002c0: 03be 6bbd 98d2 be3d b854 343d b67e 173d
000002d0: 8e3c 993d 411e 373d e6af 51bd 160b d0bb
000002e0: 337d ba3c 813c f93d 49a8 243d 8a51 103d
000002f0: 57f5 613d 2efe 433c 63b6 a1bd 8908 92bd
00000300: cc70 e3bc b619 c53c 6067 b23c 80cc fabc
00000310: 0a81 423d ad2f 49bd fd31 e7bb 19ea 45bc
00000320: 4658 3d3d c7de bc3d 1018 883d 0a88 df3d
00000330: eb58 a3bd 1222 6ebc e542 f23d 9fb7 043d
00000340: 839c 8bbc 9574 c13c fca3 9e3c 3cc0 1abd
00000350: 0c9f c73c 413c 4a3d ea47 743c ed08 573d
00000360: 3df8 e93b 5bea cb3d 9304 473d ed27 32bc
00000370: 7bae a7bc 4245 953b a2ec e33d 757d 0ebd
00000380: 084e ab3b 90dc c93c 5315 743c a9e3 d9bd
00000390: 0036 87bb 158b e5bc 5ef2 0abd 24c3 ca3d
000003a0: 3b4e 89bc 6d16 85bd 7255 acbd a7ce dabc
000003b0: 3bba 04bd 06aa 09bd 9c63 733b d90c 13bc
000003c0: 3e98 a5b9 c8ae 50bc 5ccc 64bd 054a e8bb
000003d0: e3d9 b43c 5ea2 45bc cf9c 7dbd 9890 923d
000003e0: 9571 afbc e967 febd 2f2a e1bb 7303 0a3d
000003f0: 5b82 df3d bf96 ad3d d251 b13d 269f a2bd

convs.1.lin_l.bias f4 [128]
-0.015928198 -0.0027337084 0.1286977 -0.01562896 -0.026496068 0.03799157 0.015354489 0.10655423
-0.024677586 0.05582214 0.07812486 -0.021209376 -0.010258715 0.019753637 0.049889136 0.082135804
0.08651536 0.025756365 0.0053012287 -0.032533523 -0.0068206154 0.017807044 0.06435312 -0.000424069
0.10699558 -0.01754406 -0.00550428 -0.029188437 0.018675717 0.0884178 0.012470985 -0.04509475
-0.002507362 0.057418406 -0.05326241 0.06292877 0.08759049 -0.01700604 -0.0064932057 0.11072182
0.011036397 0.06437381 0.06695214 0.011345895 0.112503946 0.0036611403 -0.05111051 0.022597484
0.09735583 -0.033128828 0.11326874 0.047676776 0.004506772 0.02823251 0.075198285 0.00329204
-0.015540601 -0.027793333 0.04855851 0.018053448 0.026379518 0.10425938 0.0654759 -0.0022319558
0.07872449 0.05388079 0.110270046 -0.0031668884 0.04474002 0.045167416 -0.023390176 -0.0021931496
0.11815362 -0.03886372 0.039325513 0.027402049 0.077954106 -0.030615177 -0.06779862 -0.025606414
-0.04391796 0.10559896 -0.00026967013 0.1026897 -0.0012028632 0.027474195 0.04612017 -0.006298926
0.026015019 -0.00017916871 -0.037303887 -0.02346778 0.06641621 0.027541852 -0.039627336 -0.031991147
-0.0029729751 0.0973991 0.027256653 -0.012684036 0.021131959 -0.029170018 -0.026633438 0.13925466
0.023489336 -0.03965573 0.029406095 0.07285892 -0.016320726 0.03547924 0.09297177 -0.041133013
-0.048717942 6.140905e-05 0.09046775 0.07978359 -0.05140748 -0.037463993 -0.012399502 0.09093415
-0.037200075 -0.010767886 -0.010063711 0.09503807 0.055683386 0.054729708 0.008185455 0.075707585
00000000: da7b 82bc 0428 33bb 54c9 033e 4e08 80bc
00000010: 480e d9bc 0c9d 1b3d 6591 7b3c 1b39 da3d
00000020: a628 cabc c2a5 643d edff 9f3d 49bf adbc
00000030: 2b14 28bc 61d2 a13c 8d58 4c3d d136 a83d
00000040: f72e b13d 03ff d23c eeb5 ad3b df41 05bd
00000050: 787f dfbb 14e0 913c 92cb 833d 9455 deb9
00000060: 8020 db3d 8fb8 8fbc 3f5d b4bb 971c efbc
00000070: d1fd 983c 6414 b53d 1a53 4c3c 46b5 38bd
00000080: 8e52 24bb 902f 6b3d af29 5abd cde0 803d
00000090: a562 b33d 4050 8bbc f5c4 d4bb 1fc2 e23d
000000a0: 01d2 343c 6bd6 833d 341e 893d 22e4 393c
000000b0: 7868 e63d beef 6f3b 4159 51bd 5c1e b93c
000000c0: 7e62 c73d 18b2 07bd 71f9 e73d b948 433d
000000d0: 8bad 933b dd47 e73c 8f01 9a3d 44bf 573b
000000e0: 019e 7ebc d8ae e3bc 4ae5 463d d3e4 933c
000000f0: dc19 d83c f185 d53d 3b18 863d 0146 12bb
00000100: 4e3a a13d 1ab2 5c3d 43d5 e13d 928b 4fbb
00000110: 5041 373d 7801 393d c19c bfbc f2ba 0fbb
00000120: 86fa f13d 902f 1fbd ca13 213d 437a e03c
00000130: 67a6 9f3d aecc fabc 01da 8abd 8bc4 d1bc
00000140: 52e3 33bd 4444 d83d 8362 8db9 fa4e d23d
00000150: 64a9 9dba 9011 e13c 81e8 3c3d 3967 cebb
00000160: 731d d53c 3cdf 3bb9 f6cb 18bd 803f c0bc
00000170: 3905 883d 739f e13c 4650 22bd 2609 03bd
00000180: 3fd6 42bb 2e79 c73d 5849 df3c b4d0 4fbc
00000190: ee1c ad3c f6f5 eebc 5e2e dabc c698 0e3e
000001a0: b56c c03c 0c6e 22bd 0de5 f03c 0f37 953d
000001b0: 0bb3 85bc ae52 113d fc67 be3d 177b 28bd
000001c0: 778c 47bd bcc8 8038 2847 b93d 9465 a33d
000001d0: a690 52bd d873 19bd 4827 4bbc af3b ba3d
000001e0: 1b5f 18bd ca6b 30bc 43e2 24bc 52a3 c23d
000001f0: 4314 643d 422c 603d 491c 063c 940c 9b3d

convs.1.lin_r.weight f4 [128, 128]
0.08176391 0.018671317 0.029292615 0.030827068 -0.036094174 0.084483586 0.0689238 -0.050125036
-0.03245554 0.008389164 0.027306542 -0.07665221 0.045947492 -0.044128876 -0.0042023556 -0.022155484
0.034193825 0.04107025 -0.039613653 -0.007421427 -0.0010685237 -0.067471296 0.0061963084 -0.06392349
-0.0035370232 -0.0034884044 0.049683504 -0.016102197 -0.05218408 0.002792119 0.010153643 -0.055038925
0.0030492228 0.031149475 -0.07735518 -0.13198005 0.005811456 0.004179958 0.053127185 -0.09147475
0.05164229 -0.017113889 -0.025843283 0.038229156 -0.016334495 0.051894438 -0.072854854 0.006178883
0.03705921 0.031067044 -0.043431725 0.0527224 -0.020525407 -0.0030529308 -0.014154775 -0.057189636
0.03364912 0.059532594 0.0583661 -0.020544164 -0.0638579 -0.058422044 -0.0034955011 -0.029333139
-0.02684289 0.034948774 0.014374951 0.01984012 -0.02702429 -0.00408541 0.00041324232 -0.055318948
0.032271806 -0.032456927 -0.023089353 0.12415524 -0.01185577 -0.030339815 -0.0030887555 -0.049052723
-0.1051752 -0.049282566 0.008203298 0.021860609 0.073015116 0.034763414 0.008653553 -0.0058232406
-0.0215356 0.06401891 0.011188348 0.005179295 -0.072385184 0.051437702 -0.021087626 -0.075763226
-0.031128773 0.07851706 -0.0010360184 -0.04205471 -0.055879425 -0.076710686 0.028386489 0.023229122
0.00087338313 0.06337446 -0.0598766 0.058800653 0.0529855 0.034401808 -0.0028045229 0.048867837
5.995631e-06 -0.05907238 0.06099927 -0.005860351 -0.009181126 0.08488272 0.016228344 0.05018346
0.017913837 -0.11818239 0.007946133 -0.08330179 0.024314012 0.0371042 -0.011620778 -0.050954267
0.11445603 0.00896302 0.07234178 0.059592932 0.044246674 -0.032521322 0.058362827 -0.018662851
-0.094793595 -0.07558437 0.0012259687 0.014129254 0.056981314 -0.016906982 -0.07576932 0.018018499
-0.03356821 -0.026482876 -0.05526525 0.050374467 0.059384 -0.026726864 -0.027808934 0.014545851
-0.05191334 -0.04378203 0.07726059 -0.08402533 -0.057165664 -0.034221023 -0.0045325574 0.041819718
-0.025716096 -0.035878487 -0.008075643 0.017838161 0.05702397 -0.10945566 0.11804783 -0.0066602193
-0.05507885 0.0014635121 0.0009307177 0.029219586 -0.01726485 -0.019314772 -0.007811002 0.08597388
-0.008334161 0.061253984 0.095794946 0.04198196 0.07699994 0.00097483443 -0.028299054 0.036539704
0.045549393 -0.031726383 0.054898344 -0.07136778 0.05747633 -0.036544476 -0.09008935 -0.041572146
-0.060670935 0.09218315 0.050183333 0.025806827 0.005763462 -0.012146276 -0.028907202 0.031070495
0.0028089588 -0.04920381 0.074229844 0.04650193 -0.028896954 0.024986811 0.016797516 -0.08735591
-0.0882375 0.024706054 0.0524088 0.028425118 0.04271056 -0.06858887 0.09073467 0.051436126
0.019530673 -0.0011816222 -0.11437167 -0.08303092 -0.096066885 0.016300488 0.06475085 0.0629695
-0.018428952 0.022400491 0.01900993 0.013029377 -0.06550392 -0.11084201 0.038477726 0.024877016
-0.05400978 -0.09508154 -0.09592498 -0.040273257 0.023340771 0.0640905 -0.025764728 -0.039613873
-0.0003569776 -0.08993347 -0.02743296 -0.042659186 -0.012953689 0.1291778 -0.08761262 0.04640437
0.09553255 -0.048060324 -0.03960095 -0.039616395 0.0001321396 0.008925468 -0.01866246 -0.019039037
00000000: d673 a73d 97f4 983c 11f7 ef3c 0c89 fc3c
00000010: 7cd7 13bd bb05 ad3d ec27 8d3d e94f 4dbd
00000020: 1af0 04bd b472 093c f8b1 df3c d5fb 9cbd
00000030: 7033 3c3d 7bc0 34bd eab3 89bb 6b7f b5bc
00000040: d30e 0c3d 4739 283d ed41 22bd 712f f3bb
00000050: b50d 8cba 642e 8abd 670a cb3b 52ea 82bd
00000060: 67cd 67bb b79d 64bb ee80 4b3d c1e8 83bc
00000070: f9be 55bd fcfb 363b 775b 263c 7f70 61bd
00000080: 78d5 473b 2f2d ff3c 656c 9ebd c725 07be
00000090: 076e be3b 07f8 883b e49b 593d 1d57 bbbd
000000a0: de86 533d 6d32 8cbc 4bb5 d3bc 2d96 1c3d
000000b0: ebcf 85bc 438f 543d ed34 95bd 3a78 ca3b
000000c0: 66cb 173d 5080 fe3c 77e5 31bd 71f3 573d
000000d0: e624 a8bc ae13 48bb 6ee9 67bc ae3f 6abd
000000e0: a9d3 093d 73d8 733d 4b11 6f3d 3c4c a8bc
000000f0: eec7 82bd f44b 6fbd c714 65bb 0d4c f0bc
00000100: 9fe5 dbbc 7226 0f3d ea84 6b3c bf87 a23c
00000110: 0b62 ddbc e7de 85bb 72a8 d839 1f96 62bd
00000120: 712f 043d 8ef1 04bd e225 bdbc 1a45 fe3d
00000130: b43e 42bc 348b f8bc b86c 4abb 82eb 48bd
00000140: 1866 d7bd 84dc 49bd 2067 063c 0515 b33c
00000150: f388 953d 1564 0e3d a2c7 0d3c e2d0 bebb
00000160: 6d6b b0bc 591c 833d 554f 373c 13b7 a93b
00000170: af3e 94bd 57b0 523d f5bf acbc c029 9bbd
00000180: c501 ffbc 8dcd a03d 02cb 87ba 8f41 2cbd
00000190: d3e1 64bd 7e1a 9dbd c88a e83c 004b be3c
000001a0: c0f3 643a 78ca 813d 2a41 75bd f4d8 703d
000001b0: 5307 593d e9e8 0c3d 16cc 37bb a429 483d
000001c0: 142e c936 e1f5 71bd 5fda 793d 3008 c0bb
000001d0: 6f6c 16bc fed6 ad3d 4ef1 843c 2c8d 4d3d
000001e0: 0ac0 923c 9c09 f2bd 7f30 023c 219a aabd
000001f0: 2e2e c73c 93fa 173d 1365 3ebc 6cb5 50bd
00000200: ec67 ea3d a1d9 123c ed27 943d b817 743d
00000210: 003c 353d 1435 05bd dc0d 6f3d d6e2 98bc
00000220: 2523 c2bd facb 9abd afb0 a03a 637e 673c
00000230: 3d65 693d 8380 8abc f22c 9bbd 889b 933c
00000240: d27e 09bd 9ef2 d8bc d15d 62bd 7555 4e3d
00000250: a33c 733d 4cf2 dabc 90cf e3bc b951 6e3c
00000260: 15a3 54bd c954 33bd cd3a 9e3d 7915 acbd
00000270: 8b26 6abd 582b 0cbd d985 94bb 274b 2b3d
00000280: 90aa d2bc 52f5 12bd b44f 04bc 5621 923c
00000290: f791 693d 4a2a e0bd 10c3 f13d f83d dabb
000002a0: 5c9a 61bd 51d3 bf3a 68fb 733a ea5d ef3c
000002b0: 046f 8dbc 033a 9ebc 6ff3 ffbb 1313 b03d
000002c0: 018c 08bc 75e5 7a3d 2430 c43d 47f5 2b3d
000002d0: 25b2 9d3d 088c 7f3a 6bd3 e7bc a8aa 153d
000002e0: 0092 3a3d 86f3 01bd 16dd 603d 4529 92bd
000002f0: 4d6c 6b3d a9af 15bd c480 b8bd 8e47 2abd
00000300: 1682 78bd 85ca bc3d 0a8d 4d3d d768 d33c
00000310: 6cdb bc3b 2d01 47bc ccce ecbc 8d87 fe3c
00000320: 8216 383b ef89 49bd d105 983d cf78 3e3d
00000330: 4eb9 ecbc 24b1 cc3c f29a 893c a8e7 b2bd
00000340: ddb5 b4bd 5a64 ca3c 9caa 563d cbdb e83c
00000350: 45f1 2e3d 5278 8cbd 19d3 b93d b0ae 523d
00000360: cafe 9f3c a9e0 9aba b23b eabd 1d0c aabd
00000370: b7be c4bd 9a88 853c 189c 843d 27f6 803d
00000380: 50f8 96bc 3c81 b73c b6ba 9b3c 2b79 553c
00000390: eb26 86bd 2301 e3bd d29a 1d3d e2ca cb3c
000003a0: 5c39 5dbd 1cba c2bd 5174 c4bd 92f5 24bd
000003b0: 2535 bf3c e141 833d 8d10 d3bc 2842 22bd
000003c0: b928 bbb9 0a2f b8bd 16bb e0bc 66bb 2ebd
000003d0: b63b 54bc 2f47 043e 3f6e b3bd 8212 3e3d
000003e0: 92a6 c33d e7da 44bd 9b34 22bd cd44 22bd
000003f0: f48e 0a39 203c 123c 04e2 98bc c1f7 9bbc

convs.2.lin_l.weight f4 [64, 128]
-0.023215776 0.1279867 0.017658273 -0.000109921224 -0.006046326 0.03424632 0.07038162 -0.04876078
-0.02741343 0.0011612233 -0.045836706 -0.054445926 0.075089544 0.03932069 -0.045952 0.043406494
0.08244064 -0.042833034 0.05998083 0.08599229 0.00040339745 -0.047588 -0.032113556 -4.36701e-05
0.054387216 -0.04796873 -0.0050236895 0.0046418416 0.004771996 0.054651037 0.08806578 -0.01263297
0.00014261942 -0.027910307 0.026344921 0.078082934 0.09125031 -0.000827387 -0.000117111835 -0.048498403
-0.011576004 -0.01652621 -0.03624018 -0.026384074 -0.010051885 0.07578678 0.010162534 0.05935988
-0.08732596 0.0843588 0.07039362 0.019386664 0.08523611 0.07451 -0.09843675 0.0012979081
0.07756557 0.06314569 -0.03993435 0.0635787 0.004718963 -0.103324436 -0.012606697 -0.013164036
-0.014995739 0.0947055 -0.06965705 0.03529872 -0.02730206 -0.0017873384 0.00027566045 0.0077407816
-0.020093339 0.022411518 0.045092918 0.120323464 -0.064730495 0.080187514 -0.03475304 -0.00011496221
0.062027346 0.033357516 -0.00038390968 -0.054703835 5.8551806e-05 -0.017301654 0.08865885 0.08339694
0.06753018 -0.028255854 0.040881053 0.01978185 0.035323694 -0.01627582 0.00012251629 -0.05018242
0.000103686056 -0.02805928 0.032122277 0.022769636 0.015304782 0.023208492 0.10041097 -0.029009223
0.014030929 0.07033791 0.056066 -0.012408933 0.117841005 0.016241461 0.009959373 -0.03842289
0.056419656 -2.6579568e-05 0.019492164 -0.11775481 -0.00084803486 -0.048970446 -0.015162716 -0.05741752
-0.00022325768 0.00037407715 0.0001989506 0.04740466 -0.02248518 0.004894757 -0.010108625 -0.027210291
0.07009048 0.024643742 -0.027916705 -0.0002233966 -0.020827658 -0.004810285 0.02994545 0.04578638
-0.07053991 0.01516557 -0.033173352 -0.0134124365 -0.08280967 0.0028139658 0.08999172 0.05120955
-0.037373602 0.04432264 0.029776255 -0.011827176 -0.00023313928 0.018445347 0.02997877 -0.00014424276
-0.005966263 0.048996266 -0.051803257 0.011262022 -0.05549961 -0.09565552 -0.10773978 -0.017721705
-8.7122215e-05 -0.07646396 -0.010803684 -0.1177014 -0.056206338 6.713163e-05 0.00029772974 -0.0061526294
0.014915422 -0.05570492 -0.016331524 0.059763342 0.0042572976 0.036310818 -0.037584797 -0.07799333
-0.07064573 0.01802565 0.056206603 -0.028935453 -0.047556072 -0.052732956 0.039440773 -0.00039950962
-0.07668206 -0.09021855 0.08607972 -0.044682685 0.07724165 0.06555794 -0.037803967 0.027654566
0.06891771 -0.012599069 -0.003238767 -0.049393002 -0.059527855 -0.07077952 -0.00025566173 0.027189456
0.11549383 0.01934649 -0.04575365 -0.10339157 -0.054709874 -0.029864317 0.054911774 -0.00025406491
-0.033351492 0.047932938 -0.00011608084 0.09221317 3.6750673e-05 -0.12566629 -0.038540155 0.074182026
0.014991329 0.017112885 0.030251363 0.00035652617 -0.020542303 0.015855663 6.9204405e-05 -0.024843127
-0.00021329851 0.023375519 0.018486269 -0.11217704 0.022231162 -0.08542785 0.045634143 0.011479464
-0.028711416 0.051644105 -0.02369291 -0.018049104 -0.05404921 -0.06530012 0.0015045519 -0.027052013
-0.0065299207 -9.548101e-05 -0.011148477 0.040951412 0.0007493804 -0.009447513 -0.049640417 -0.020613952
0.0004300566 -0.12968118 -0.018882755 0.0050353236 0.07446531 -0.006847318 -0.008803686 0.039024733
00000000: 032f bebc f20e 033e 15a8 903c 8285 e6b8
00000010: 4220 c6bb df45 0c3d 3d24 903d 62b9 47bd
00000020: 2192 e0bc 3034 983a 45bf 3bbd b102 5fbd
00000030: 8cc8 993d bb0e 213d 2a38 3cbd 02cb 313d
00000040: a3d6 a83d b171 2fbd 75ae 753d ba1c b03d
00000050: 177f d339 a2eb 42bd 8189 03bd 6a2a 37b8
00000060: 21c5 5e3d dc7a 44bd c39d a4bb 971a 983b
00000070: 675e 9c3b c4d9 5f3d d55b b43d 84fa 4ebc
00000080: 1c8c 1539 28a4 e4bc 4ed1 d73c f2e9 9f3d
00000090: 71e1 ba3d 00e5 58ba f099 f5b8 43a6 46bd
000000a0: 48a9 3dbc f961 87bc 9570 14bd 6a23 d8bc
000000b0: a9b0 24bc 1936 9b3d c280 263c 5823 733d
000000c0: f4d7 b2bd 4ec4 ac3d 882a 903d c8d0 9e3c
000000d0: 4590 ae3d b398 983d 3599 c9bd 921e aa3a
000000e0: b3da 9e3d 8752 813d 3392 23bd 8d35 823d
000000f0: 88a1 9a3b c39b d3bd 528c 4ebc f8ad 57bc
00000100: b0b0 75bc f5f4 c13d 5ba8 8ebd 6495 103d
00000110: 92a8 dfbc 2045 eaba 8586 9039 62a6 fd3b
00000120: c99a a4bc 5c98 b73c 5ab3 383d 266c f63d
00000130: 6c91 84bd 5a39 a43d 3459 0ebd de17 f1b8
00000140: 6310 7e3d e4a1 083d 7c47 c9b9 2111 60bd
00000150: 8695 7538 33bc 8dbc c592 b53d 04cc aa3d
00000160: 434d 8a3d d278 e7bc e472 273d 8c0d a23c
00000170: 94af 103d de54 85bc b777 0039 158c 4dbd
00000180: 0772 d938 93dc e5bc a692 033d 6387 ba3c
00000190: e9c0 7a3c bc1f be3c 44a4 cd3d c0a4 edbc
000001a0: fbe1 653c 520d 903d 76a5 653d d64e 4bbc
000001b0: a056 f13d d00c 853c a32c 233c 5261 1dbd
000001c0: 4c18 673d 30f7 deb7 08ae 9f3c 6f29 f1bd
000001d0: a84e 5eba 3c95 48bd 0a6d 78bc a22e 6bbd
000001e0: 471a 6ab9 c91f c439 659d 5039 642b 423d
000001f0: d732 b8bc 3364 a03b a59e 25bc 1ee8 debc
00000200: 998b 8f3d ace1 c93c 93b1 e4bc 913f 6ab9
00000210: c49e aabc 989f 9dbb 2950 f53c 808a 3b3d
00000220: 3a77 90bd 0379 783c c8e0 07bd d6bf 5bbc
00000230: 1e98 a9bd 836a 383b 944d b83d 1bc1 513d
00000240: 1015 19bd a88b 353d 55ed f33c c6c6 41bc
00000250: d976 74b9 b21a 973c 0a96 f53c df3f 17b9
00000260: a480 c3bb 4fb0 483d a72f 54bd 5884 383c
00000270: 8f53 63bd 0be7 c3bd aca6 dcbd 1c2d 91bc
00000280: 62b5 b6b8 2399 9cbd ef01 31bc 6e0d f1bd
00000290: 9e38 66bd 05c9 8c38 9c18 9c39 ff9b c9bb
000002a0: d05f 743c d82a 64bd b0c9 85bc 68ca 743d
000002b0: cd80 8b3b a7ba 143d 84f2 19bd f8ba 9fbd
000002c0: b5ae 90bd 87aa 933c e538 663d 0b0a edbc
000002d0: 28ca 42bd 83fe 57bd a68c 213d 4675 d1b9
000002e0: 7c0b 9dbd 81c4 b8bd 904a b03d 3105 37bd
000002f0: df30 9e3d 3e43 863d 55d8 1abd d48b e23c
00000300: ba24 8d3d 536c 4ebc 7e41 54bb 5150 4abd
00000310: 7bd3 73bd daf4 90bd 560a 86b9 6cbc de3c
00000320: 0788 ec3d 887c 9e3c 2e68 3bbd f6be d3bd
00000330: 7617 60bd 03a6 f4bc 2beb 603d 0434 85b9
00000340: 939b 08bd 5455 443d 6d70 f3b8 42da bc3d
00000350: bc24 1a38 aaae 00be 48dc 1dbd bfec 973d
00000360: 319e 753c 5230 8c3c b5d1 f73c 22ec ba39
00000370: 5548 a8bc bce3 813c d521 9138 d083 cbbc
00000380: e2a8 5fb9 047e bf3c 8470 973c 13bd e5bd
00000390: 201e b63c ccf4 aebd deea 3a3d 5d14 3c3c
000003a0: 3434 ebbc c588 533d a217 c2bc b7db 93bc
000003b0: b462 5dbd 12bc 85bd 6234 c53a 2f9c ddbc
000003c0: f2f8 d5bb fa3c c8b8 1aa8 36bc abbc 273d
000003d0: 1172 443a bec9 1abc c053 4bbd 97de a8bc
000003e0: 3879 e139 25cb 04be 02b0 9abc 5bff a43b
000003f0: 4581 983d 775f e0bb 563d 10bc 66d8 1f3d

convs.2.lin_l.bias f4 [64]
-0.16799419 0.06424191 0.11633612 -0.1310451 0.14042662 0.13749163 -0.14886507 -0.10640652
-0.14882661 0.10880107 0.06284085 -0.10497145 0.103169635 0.108748585 0.14434548 0.14170215
-0.031054087 -0.015041096 -0.084963515 -0.049393874 0.09705745 0.08432398 0.13058543 0.16685896
0.05626968 0.08832159 0.101482764 0.08710199 -0.08070088 -0.09935446 -0.14886114 -0.042752624
0.15299101 -0.104692236 0.09353061 0.13765371 0.06287808 0.0660032 -0.11230863 0.08559693
-0.13774398 -0.09472314 -0.078398146 0.14974818 0.14085846 0.11029238 -0.1442373 -0.13243353
-0.14716363 0.053681538 -0.06893344 0.008352251 -0.11293391 -0.103642285 0.08696559 0.061993074
-0.118823126 -0.14920515 0.012199494 0.03406445 0.07650881 0.06800745 -0.09083191 -0.07315033
00000000: ab06 2cbe 4391 833d a241 ee3d b030 06be
00000010: ffcb 0f3e 9bca 0c3e 1670 18be a9eb d9bd
00000020: 0166 18be 18d3 de3d b4b2 803d 46fb d6bd
00000030: 9a4a d33d 94b7 de3d 4dcf 133e 5e1a 113e
00000040: 2465 febc ee6e 76bc 5a01 aebd 3b51 4abd
00000050: 0ec6 c63d 0db2 ac3d 30b8 053e 13dd 2a3e
00000060: 097b 663d f3e1 b43d 32d6 cf3d 8762 b23d
00000070: 8146 a5bd 5a7a cbbd 0e6f 18be 601d 2fbd
00000080: ada9 1c3e e268 d6bd fa8c bf3d 18f5 0c3e
00000090: 39c6 803d b02c 873d 1102 e6bd 714d af3d
000000a0: c20c 0dbe 35fe c1bd 358f a0bd 9657 193e
000000b0: 333d 103e f9e0 e13d f1b2 13be a89c 07be
000000c0: 10b2 16be 2ce1 5b3d fa2c 8dbd e1d7 083c
000000d0: e549 e7bd 6842 d4bd 041b b23d 73ec 7d3d
000000e0: 8a59 f3bd 3cc9 18be 63e0 473c 2a87 0b3d
000000f0: a7b0 9c3d 7d47 8b3d 1506 babd d7cf 95bd

convs.2.lin_r.weight f4 [64, 128]
-0.0142282015 0.03773426 -0.033853423 0.0002437676 0.015414216 0.014095308 -0.042559035 -0.039919965
-0.008679497 -0.04423431 0.0494188 -0.040402427 -0.023782568 0.009614503 -0.056046717 -0.10592885
0.040759627 -0.018122429 0.036576655 0.057890598 6.879214e-05 -0.0068410444 -0.079981536 -9.4391646e-05
-0.019228462 -0.0710417 0.05270496 -0.030867616 0.008151703 -0.07547265 0.06471644 0.030059068
-9.455125e-05 -0.11443915 0.03951267 -0.051414464 0.014934764 0.0032747607 -4.626268e-05 -0.13201651
0.0021187665 -0.092352144 -0.019614344 -0.0042887353 -0.08363547 0.012448345 -0.038453553 -0.06292887
-0.1436882 0.006688496 -0.040437374 -0.022181751 -0.059333637 -0.0019787722 -0.014124326 -0.0026117903
-0.004459691 -0.05502234 -0.065295175 0.008245213 0.049444716 0.025681328 -0.028465627 0.027958589
0.025212577 0.024298592 -0.12044312 -0.0061472002 -0.04093619 -0.07705821 -0.0004708606 0.082558036
-0.11355098 0.11499388 -0.090977296 0.055846527 0.01703977 0.0054854252 0.009782822 0.0006471521
-0.030065076 -0.02403099 5.3629556e-05 0.008865451 0.00019598869 0.06322474 -0.133709 0.078519955
-0.009772728 -0.033806805 -0.016033728 7.0908965e-05 -0.066220276 -0.015359663 0.00010724469 -0.03805445
4.7592333e-05 -0.044732515 0.044227764 0.0076497616 0.015369301 0.09007213 0.048387423 -0.09919116
-0.03756366 -0.004827924 0.03642064 -0.03177198 0.06799565 -0.07640029 -0.09457819 0.018760417
0.034100857 -0.00041127062 -0.0060833525 -0.08207402 0.00091203884 0.014319886 0.049461413 -0.067471795
0.00016082198 0.03459839 0.005289419 0.009111138 -0.11727797 -0.07509869 0.039525796 -0.039156064
-0.0683827 0.022143288 0.1303624 0.0002832108 -0.06392021 -0.04883299 0.06304294 0.0993598
-0.04622304 -0.013459297 0.053433854 -0.001738365 -0.0067029116 0.06701547 0.07586144 0.02467998
-0.027349915 -0.010289456 -0.0338167 0.06221937 4.344219e-05 0.0402149 0.119396545 0.00030480392
0.05684013 -0.0012535044 0.044333678 -0.004659842 -0.034560747 -0.029794699 -0.08324176 -0.038637426
4.0394858e-05 -0.034419242 -0.0087008355 0.02567173 0.024372054 -3.4141121e-06 -4.567317e-05 0.06366794
0.00038997037 0.077295095 0.038029518 0.054040786 0.06830276 0.04821171 0.053878695 -0.0031637058
0.027788883 0.0017557158 0.114667766 0.061218627 -0.07537555 0.06691373 0.061705444 -6.399787e-05
0.07903312 -0.0536862 -0.0042822105 -0.053328797 0.0063093533 0.034928776 0.023250587 -0.030701814
0.028299307 0.019616148 0.117720455 -0.03637071 0.05764119 -0.046672642 -0.00029907527 -0.0193356
0.12940393 0.0286838 0.010179173 0.05896962 -0.038319312 -0.01644389 0.0065093124 0.00012223038
-0.03285869 0.049617127 -0.00024945074 -0.009181603 1.7288548e-06 -0.044466347 0.048444174 -0.038488973
0.08490556 0.047291234 3.6588594e-05 0.00043281843 0.10203189 -0.018182449 -3.8638118e-05 0.019167636
0.00017644804 0.073656 0.062539086 -0.010599689 -0.023552531 -0.06909788 0.04838793 0.046049584
0.08041993 0.096915506 0.008042509 0.04036968 0.025667215 -0.010282924 0.035324395 -0.06357124
0.0068898587 0.0003926123 -0.025638819 0.10834943 -0.0006043907 -0.052030437 0.08539067 0.034184195
-0.00013993384 0.0038185816 -0.0007182178 0.11213841 0.04038449 0.0014405253 -0.07362148 0.0031509781
00000000: 671d 69bc 3d8f 1a3d e3a9 0abd de9b 7f39
00000010: e88b 7c3c 02f0 663c 6252 2ebd 1e83 23bd
00000020: 7334 0ebc 092f 35bd 5e6b 4a3d 047d 25bd
00000030: a9d3 c2bc 2686 1d3c 3e91 65bd 3af1 d8bd
00000040: 91f3 263d 7d75 94bc 67d1 153d b11e 6d3d
00000050: 8044 9038 d72a e0bb 5ccd a3bd 21f4 c5b8
00000060: 0285 9dbc 507e 91bd 28e1 573d 15de fcbc
00000070: b88e 053c 6891 9abd 0e8a 843d 6f3e f63c
00000080: d149 c6b8 135f eabd 0ad8 213d f997 52bd
00000090: f1b0 743c 5e9d 563b 2d0a 42b8 562f 07be
000000a0: 01db 0a3b 1f23 bdbd 43ae a0bc 8588 8cbb
000000b0: 1349 abbd 25f4 4b3c 7981 1dbd dae0 80bd
000000c0: 0023 13be 2c2b db3b a9a1 25bd 81b6 b5bc
000000d0: d407 73bd 4aae 01bb b869 67bc 922a 2bbb
000000e0: 9922 92bb 1b5f 61bd 7ab9 85bd ee16 073c
000000f0: 8b86 4a3d a661 d23c bf30 e9bc 6909 e53c
00000100: 9b8a ce3c d70d c73c e2aa f6bd 746e c9bb
00000110: b5ac 27bd b2d0 9dbd d7dd f6b9 3014 a93d
00000120: 6b8d e8bd e981 eb3d 4e52 babd 54bf 643d
00000130: fd96 8b3c 15bf b33b 2148 203c a4a5 293a
00000140: 094b f6bc a4dc c4bc 4cf0 6038 6640 113c
00000150: 5082 4d39 f97b 813d 03eb 08be 12cf a03d
00000160: cb1d 20bc 0179 0abd 2a59 83bc f6b4 9438
00000170: 7f9e 87bd 19a7 7bbc 8ee8 e038 fcde 1bbd
00000180: e19d 4738 7139 37bd 2c28 353d daaa fa3b
00000190: 85cf 7b3c bd77 b83d e431 463d bc24 cbbd
000001a0: 5adc 19bd 9033 9ebb cf2d 153d 5623 02bd
000001b0: 4e41 8b3d c177 9cbd 36b2 c1bd 72af 993c
000001c0: 57ad 0b3d cf9f d7b9 dc56 c7bb 6c16 a8bd
000001d0: e415 6f3a f59d 6a3c 0d98 4a3d a72e 8abd
000001e0: 52a2 2839 0bb7 0d3d dd52 ad3b e246 153c
000001f0: 6f2f f0bd 58cd 99bd cde5 213d 1c62 20bd
00000200: 3b0c 8cbd d765 b53c b97d 053e e97b 9439
00000210: 99e8 82bd 1a05 48bd a81c 813d 277d cb3d
00000220: 5f54 3dbd 6284 5cbc 75dd 5a3d dad9 e3ba
00000230: 19a4 dbbb 683f 893d 3e5d 9b3d ab2d ca3c
00000240: ee0c e0bc 1b95 28bc 6183 0abd bdd9 7e3d
00000250: b235 3638 61b8 243d 2d86 f43d 17ce 9f39
00000260: 32d1 683d a14c a4ba 3b97 353d 96b1 98bb
00000270: 928f 0dbd 0314 f4bc a87a aabd 4742 1ebd
00000280: a66d 2938 31fb 0cbd f38d 0ebc 854d d23c
00000290: e7a7 c73c 001e 65b6 3191 3fb8 5664 823d
000002a0: f074 cc39 e44c 9e3d d7c4 1b3d df59 5d3d
000002b0: 51e2 8b3d a479 453d e8af 5c3d 2d56 4fbb
000002c0: 83a5 e33c 0c20 e63a efd6 ea3d 62c0 7a3d
000002d0: 7f5e 9abd 110a 893d d9be 7c3d 9836 86b8
000002e0: 1edc a13d 10e6 5bbd c951 8cbb 4c6f 5abd
000002f0: b1be ce3b 7a11 0f3d 0478 be3c 5f82 fbbc
00000300: f3d3 e73c 0bb2 a03c 6c17 f13d 74f9 14bd
00000310: 2b19 6c3d d02b 3fbd 34cd 9cb9 b165 9ebc
00000320: 7782 043e 4afa ea3c 8cc6 263c 218a 713d
00000330: b6f4 1cbd 56b5 86bc 124c d53b f82a 0039
00000340: d596 06bd 543b 4b3d b6c8 82b9 6f6e 16bc
00000350: 000b e835 5822 36bd 666d 463d 9da6 1dbd
00000360: f7e2 ad3d 74b4 413d b476 1938 e8eb e239
00000370: 18f6 d03d 5cf3 94bc 5d0f 22b8 7205 9d3c
00000380: e904 3939 f5d8 963d 7e14 803d 51aa 2dbc
00000390: 3df1 c0bc 3083 8dbd 6c32 463d 7d9e 3c3d
000003a0: 34b3 a43d a37b c63d bac4 033c ad5a 253d
000003b0: 0d44 d23c b679 28bc 50b0 103d a331 82bd
000003c0: 53c4 e13b 88d7 cd39 8008 d2bc 4ee6 dd3d
000003d0: f96f 1eba de1d 55bd 4ee1 ae3d ba04 0c3d
000003e0: 34bb 12b9 2b41 7a3b c846 3cba d3a8 e53d
000003f0: 356a 253d 02d0 bc3a dcc6 96bd a480 4e3b
